__________________________________________________________________________________________________
 Layer (type)                   Output Shape         Param #     Connected to                     
==================================================================================================
 image (InputLayer)             [(None, 200, 50, 3)  0           []                               
                                ]                                                                 
                                                                                                  
 Conv1 (Conv2D)                 (None, 200, 50, 32)  896         ['image[0][0]']                  
                                                                                                  
 pool1 (MaxPooling2D)           (None, 100, 25, 32)  0           ['Conv1[0][0]']                  
                                                                                                  
 Conv2 (Conv2D)                 (None, 100, 25, 64)  18496       ['pool1[0][0]']                  
                                                                                                  
 pool2 (MaxPooling2D)           (None, 50, 12, 64)   0           ['Conv2[0][0]']                  
                                                                                                  
 reshape (Reshape)              (None, 50, 768)      0           ['pool2[0][0]']                  
                                                                                                  
 dense1 (Dense)                 (None, 50, 64)       49216       ['reshape[0][0]']                
                                                                                                  
 dropout (Dropout)              (None, 50, 64)       0           ['dense1[0][0]']                 
                                                                                                  
 bidirectional (Bidirectional)  (None, 50, 256)      197632      ['dropout[0][0]']                
                                                                                                  
 bidirectional_1 (Bidirectional  (None, 50, 128)     164352      ['bidirectional[0][0]']          
 )                                                                                                
                                                                                                  
 label (InputLayer)             [(None, None)]       0           []                               
                                                                                                  
 dense2 (Dense)                 (None, 50, 62)       7998        ['bidirectional_1[0][0]']        
                                                                                                  
 ctc_loss (CTCLayer)            (None, 50, 62)       0           ['label[0][0]',                  
                                                                  'dense2[0][0]']                 
                                                                                                  
==================================================================================================
Total params: 438,590
Trainable params: 438,590
Non-traina
…
